traffic_dqn.pth (torch, 97861 bytes, 6 tensors)

net.0.weight f4 [128, 50]
000000 6d 3e c6 bd 1d ea 04 3e ed ed 94 bd 3b 5d b9 3b
       -0.096798755 0.12979932 -0.07271943 0.005656866
000010 ec 96 9a 3d 5b d4 0a be 11 c9 08 be 9a 0c 30 bd
       0.07548317 -0.1355757 -0.13357951 -0.042980768
000020 5f 15 f0 3c 92 b5 21 bc a1 da 64 bc e0 28 26 3d
       0.029307066 -0.00986995 -0.013968141 0.040566325
000030 54 9c 52 3d c1 59 12 3d e5 61 bb bd af dc f3 3d
       0.051418617 0.035730127 -0.09149531 0.119073264
000040 9e f1 e5 bd 8a ec 08 be 47 39 16 3b 83 f8 02 3d
       -0.112277254 -0.13371482 0.0022922324 0.03197528
000050 08 cc d3 3c bb fc d6 3d 63 cd dc bd a0 2e 08 3e
       0.025854126 0.10497423 -0.10781362 0.13299036
000060 48 7a 89 3d 57 d7 83 3d 9b ac fa bd d3 51 6b 3c
       0.067127764 0.06437557 -0.12239953 0.01436277
000070 3c fd 96 bd 09 1f 0b be b1 2d f3 bd 8f 06 cc 3d
       -0.073725194 -0.13586058 -0.11873949 0.099621885
000080 c1 fe 0c 3e 55 bc f3 bd 96 68 09 3a 6b ad ef bd
       0.13769056 -0.11901156 0.000524172 -0.11702999
000090 ad 83 c8 bc 5a ec 2c 3d a6 e3 7d 3d cc b2 54 3d
       -0.02447685 0.04221759 0.06198468 0.051928326
0000a0 ce 51 8b bd 98 c4 ac 3d 30 33 82 bd 63 a8 d2 bc
       -0.068027124 0.08435935 -0.063574195 -0.025715059
0000b0 b5 df 3b bb ff 87 bf bd 32 b5 c3 3d 06 69 e3 bd
       -0.0028667275 -0.09352111 0.09556045 -0.11104016
0000c0 41 d9 27 3c 9d 4b a6 3c 31 fd 21 be f0 2a d1 3d
       0.010244668 0.020299727 -0.15819241 0.10213268
0000d0 aa 19 03 be df 9d 11 3c f6 e8 96 bb f9 96 ba 3a
       -0.12802759 0.008887737 -0.004605408 0.0014235667
0000e0 4d c2 bc bc 32 2f 98 bd 00 c8 87 bd 78 e0 9d 3c
       -0.023041869 -0.07430877 -0.06629944 0.019272074
0000f0 97 7b 51 bd 11 55 77 bd 8b 71 70 bd 9b 8a d7 3d
       -0.051143255 -0.06038386 -0.058702033 0.10524484
000100 82 32 1f 3d a1 bd 03 3e d7 10 9d 3d 5e 1e 14 bd
       0.038866527 0.12865306 0.076692276 -0.036161773
000110 b3 ab 9c bc 01 b9 db 3d af 58 22 bd 29 ca 8a bd
       -0.019124841 0.10728646 -0.039635357 -0.0677684
000120 58 f2 fd bc 57 82 ee bd fe 50 2c 3d 06 93 49 bd
       -0.030999348 -0.11645954 0.042069428 -0.049212478
000130 0e 57 d8 3d 91 ef b1 3d 9e e4 0a be 40 d9 98 3d
       0.10563479 0.08688272 -0.13563773 0.07463312
000140 2c af 9d 3a 72 3b bc 3c fe 69 a8 3d 77 b7 69 bc
       0.0012030355 0.022977564 0.082233414 -0.014264933
000150 75 56 51 3d 90 fa c9 3d b3 6d e7 3d ad e4 c1 bd
       0.051107842 0.09862244 0.1130022 -0.094674446
000160 79 f6 19 be a9 4e cb 3d 25 85 0b 3a 9d 61 f5 3d
       -0.15035428 0.099271126 0.0005322269 0.11981509
000170 6a 11 07 be 5a 82 01 3e bd c6 4b bc 05 57 d2 bd
       -0.13190237 0.12647381 -0.01243752 -0.10270504
000180 19 3e f4 bd c9 65 ed 3d f6 7d b1 3d 74 ae 28 be
       -0.11925907 0.115916796 0.08666603 -0.16472799
000190 1d 55 d6 be 86 19 c1 3e 6a 6a a6 3e b4 79 1e 3d
       -0.4186181 0.37714785 0.32503062 0.038690284
0001a0 72 d7 79 3e 9c 2f 3b 3d af 06 0d 3e ab aa 06 be
       0.24398592 0.0456997 0.13772081 -0.13151042
0001b0 4f 21 ac bc 9d cb 35 3d 13 a0 24 3d bb c6 b2 3e
       -0.021011977 0.044383634 0.04019172 0.34917244
0001c0 75 d8 c7 bd 39 23 67 be dc 21 2e 3e dd 11 38 bd
       -0.09758083 -0.2257203 0.17005104 -0.04493891
0001d0 7d 3e 8e 3d e9 49 8b be 29 c6 be 3e 40 05 a8 bd
       0.069455124 -0.27204826 0.3726056 -0.08204126
0001e0 6e 60 12 3f 52 f2 e2 bd 85 ab 55 3f e3 18 5e 3e
       0.5717839 -0.11081375 0.83464843 0.21689181
0001f0 58 46 0f 3f 0a b0 bb 3f 1f 81 b1 bd e1 4e 77 3f
       0.5596671 1.4663098 -0.08667206 0.96604735
000200 e6 69 88 be 0c d4 51 3f 7e 04 6d 3d 8e 51 8d 3d
       -0.26643294 0.8196418 0.057865612 0.06900321
000210 89 06 44 3e 3d e4 2f be 1d e5 bc 3d 1a b1 87 3e
       0.19143118 -0.1717691 0.092233874 0.26502305
000220 66 69 7f 3e 40 27 7a 3e 59 ad 07 3e 71 3d ed 3d
       0.2494255 0.24429035 0.1324972 0.11583985
000230 5d 01 d2 3e cd 06 ae 3d 7a 92 9e 3e b2 e3 f0 bc
       0.41016665 0.08497391 0.30971128 -0.029405449
000240 31 9e 24 3f b9 bd 6b be 09 4c 34 be d1 a0 0a be
       0.6430388 -0.23021592 -0.1760713 -0.13537909
000250 0b d4 d8 bd 0d 19 37 be 31 80 0e 3e 1c d4 d0 3e
       -0.10587319 -0.1788065 0.13916089 0.40786827
000260 ef 4b f3 3e 1e 01 10 3f 97 ba 16 3f cd 96 bf 3d
       0.4751887 0.56251705 0.58878464 0.09354935
000270 e9 87 c1 3e c7 1e 05 be 91 aa d5 3e 13 22 94 3e
       0.37799004 -0.13000022 0.41731694 0.28932247
000280 19 52 68 3e 2d 1c 8e 3e 0f a5 4d 3d fd 5c 0d 3f
       0.22687568 0.2775587 0.05020624 0.55220014
000290 4f 75 83 3d de 2b fa 3e f6 cb c2 bd db a8 b5 3e
       0.06418859 0.48861593 -0.09511559 0.3548039
0002a0 ad a2 f5 bd 03 24 af 3e bc 61 96 bd 61 32 19 3f
       -0.119939186 0.34207162 -0.0734286 0.598425
0002b0 05 a5 a8 be 3d a4 8a 3f 59 b4 e9 3e a8 6b f5 bd
       -0.329384 1.0831372 0.45645407 -0.119834244
0002c0 7d ed c8 3d 73 cf 12 3f ac 35 97 be 4a 12 62 3f
       0.09810922 0.5734779 -0.29533136 0.88309157
0002d0 cc ef 4c 3e 9e d2 9d be b5 55 f9 3e c2 04 11 bf
       0.2001335 -0.3082475 0.48698202 -0.56647885
0002e0 29 d4 a3 be 6b ce f4 3e f5 7a 5c 3d 7a ac f2 3e
       -0.31997803 0.47813734 0.0538282 0.47397214
0002f0 3a 24 bf bd 31 99 24 3f 64 cb d0 3c 99 94 ab 3e
       -0.093330815 0.6429625 0.02548761 0.3351181
000300 4d 19 10 bd c1 32 af 3e 8c ba 5e be 7b 8a 27 3e
       -0.03518038 0.3421841 -0.2175085 0.1636142
000310 48 39 90 be df 5d 11 3f 82 26 97 bf 62 a8 41 3e
       -0.28168702 0.5678386 -1.1808627 0.18911889
000320 b7 b4 63 3c 40 92 21 3c 13 00 ff 3d e4 eb a6 3e
       0.013898066 0.009861529 0.12451186 0.32601845
000330 09 34 f5 3e 24 11 d0 3e 9b 49 32 bc ee a3 05 3f
       0.47891262 0.40638077 -0.010881807 0.5220326
000340 ad 7d 48 bf ab c7 b9 3f 08 99 08 bf 53 b2 58 3f
       -0.78316766 1.4514059 -0.5335851 0.846471
000350 61 ec 76 be c9 07 2e 3f de 2d b2 bd 52 3b fd ba
       -0.24113609 0.6798063 -0.08700155 -0.0019320047
000360 cd 7d 9c be b2 0c 72 3e 60 be 1a 3e 64 b5 24 3e
       -0.30564728 0.23637655 0.15111685 0.1608482
000370 b5 23 a7 3e 9b 63 17 3f b8 40 71 3e 2f af 8c be
       0.3264443 0.5913636 0.23559844 -0.27477404
000380 f0 65 2b bf f0 b9 83 bd 75 d5 3c 3d 5e ca f9 be
       -0.6695242 -0.06431949 0.046102006 -0.48787206
000390 43 1a c9 3e 76 78 bb be 6c f7 6b 3e e4 69 42 3d
       0.3927785 -0.36615342 0.23043603 0.047464266
0003a0 c6 21 2a 3d 70 09 01 3e 15 02 16 be 7c 21 36 3f
       0.041536115 0.12601256 -0.14649232 0.71144843
0003b0 d9 80 a0 be cc 40 c9 3e 04 1a 23 be 3b 80 fa 3e
       -0.31348303 0.3930725 -0.15927893 0.48925957
0003c0 21 52 ba bd b7 96 1b 3f c6 b4 09 be af 40 5f 3f
       -0.09097696 0.6077685 -0.13447866 0.87208074
0003d0 84 e2 ef bd 27 6b 74 3d c8 05 17 be 61 af a3 3e
       -0.11713126 0.0596725 -0.14748299 0.3196974
0003e0 b9 41 9a bf c7 82 ad 3e ac 54 89 be 5c 0c 93 3d
       -1.2051307 0.33888838 -0.26822412 0.07180092
0003f0 3e ae 85 3e 6d e7 c8 bc 3f 40 05 bf 6e ad 9a 3e
       0.261095 -0.024524415 -0.52051157 0.3021044

net.0.bias f4 [128]
000000 18 31 fe bc 7e 8c 40 3d a1 f4 a3 be e5 13 a5 3e
       -0.03102927 0.047008984 -0.32022575 0.3224174
000010 18 8a 9b 3e 28 57 db bd e1 1e 08 3c b3 2f d7 bd
       0.30378795 -0.10709983 0.008308143 -0.10507145
000020 b9 12 50 be 24 a2 b7 3d f7 19 f2 3c dd c9 c4 be
       -0.20319642 0.08966473 0.029553397 -0.3843526
000030 a5 48 26 3d 4a 73 31 3d 73 8c a7 be 37 1c a0 bc
       0.040596623 0.04332284 -0.32724342 -0.019544704
000040 12 8d 9b 3d e6 ce 11 3d 0a c0 f5 3e 7f 60 fd 3e
       0.075952664 0.035597704 0.47998077 0.49487683
000050 22 75 9d bd 52 5b e2 be f4 62 cd 3e d5 20 81 3c
       -0.07688357 -0.44210297 0.40114558 0.015762726
000060 ef 91 d0 be 9f 7b 61 3e 8f dd 16 3f 30 c2 0f 3f
       -0.40736338 0.22019814 0.5893182 0.5615568
000070 ce be 7e 3e 71 0b c0 3e 31 94 d1 bd 2a 00 1e be
       0.24877474 0.3750873 -0.102333434 -0.1542975
000080 4b 34 aa 3d 1b e3 f0 bc 0a 24 d7 3d a8 c2 d5 3e
       0.08310755 -0.029405167 0.10504921 0.41750073
000090 87 db 3c 3d 22 a0 91 3d 41 8c 83 3d b9 64 27 3e
       0.046107795 0.07110621 0.06423236 0.16347016
0000a0 43 db c3 3d ad 35 24 be b6 ce 1e be dd e6 30 bf
       0.09563305 -0.160361 -0.15508541 -0.6910227
0000b0 8b 7d e5 bd 3b d7 42 3e dc 42 e7 be ed 21 24 bf
       -0.11205586 0.19027416 -0.45168197 -0.64114267
0000c0 21 eb 11 bf 4f 00 b4 3e 88 a4 1e bf 45 2e d2 3d
       -0.56999403 0.35156485 -0.61969805 0.102627315
0000d0 50 ec 8c 3c a4 d4 fc be 17 72 ac 3c 14 e2 ec bc
       0.017202526 -0.49380982 0.021050496 -0.028916396
0000e0 0e ee 7c 3c a0 ea d0 3e 8e 1f f9 be 9f ae ee bd
       0.015437616 0.40804005 -0.48656887 -0.116544
0000f0 65 58 09 bd f0 f0 81 3e da ee 14 be 22 ed 6c 3e
       -0.033531565 0.25379133 -0.1454424 0.23137334
000100 68 5a 37 be 3c e9 9d 3b a4 df ae 3c 8e ac 2b 3e
       -0.17905581 0.0048190635 0.021346875 0.16765043
000110 cb 39 e7 bd f8 80 c4 bd ee 1d 8a bd cc 30 3c bd
       -0.1129032 -0.09594911 -0.0674399 -0.045944974
000120 a4 90 93 bd 49 09 12 be 30 c1 1a be 93 94 1e 3f
       -0.072053224 -0.14261355 -0.15112758 0.61945456
000130 1e 0d 39 bd d6 16 00 bf 86 40 89 3e 9a 71 1f bf
       -0.045178525 -0.50034845 0.2680704 -0.6228272
000140 f6 b5 fd 3b f4 47 18 be c7 54 a9 be b1 18 aa be
       0.0077426387 -0.14871198 -0.33072492 -0.33221963
000150 8f 5a c9 3d d9 b0 bc 3e 6d a5 74 bd 73 16 d2 3d
       0.09831726 0.36853674 -0.059728075 0.10258188
000160 d5 0d df 3d 07 90 f2 3e f2 f4 92 3c 18 16 66 3d
       0.1089131 0.4737551 0.017939065 0.056173414
000170 37 d9 a9 3d 35 24 43 bd 09 43 ad 3d 3b e0 eb 3d
       0.082933836 -0.04764195 0.084600516 0.11517378
000180 78 dc d0 3e 5b 96 22 3f d2 82 04 be d2 89 8d be
       0.40793204 0.63510674 -0.12940529 -0.2764421
000190 21 dd cf bd ac 6d 86 3d 3d a2 db 3d 8d 70 9a be
       -0.10149599 0.06563887 0.10724304 -0.30163994
0001a0 ad 04 13 be 84 1a 18 be 42 a0 e4 bd 09 84 98 3e
       -0.14357252 -0.14853865 -0.11163379 0.29788235
0001b0 11 96 85 bd 69 52 20 be 65 b4 1c be 22 e1 ac 3d
       -0.065227635 -0.15656437 -0.1530319 0.08441378
0001c0 6b 72 2b 3f b2 fa 9d be 51 d0 51 3d a2 bb a3 be
       0.6697146 -0.30855328 0.051224057 -0.3197909
0001d0 8d b8 da 3c 42 e0 1f be 12 c5 63 be df 99 e6 bc
       0.026699329 -0.15612891 -0.22243145 -0.028149543
0001e0 13 c2 1b 3e 96 fd b7 bd 77 83 d2 bd 3d 97 18 be
       0.15210752 -0.089839146 -0.10278981 -0.14901443
0001f0 e1 ca 8d bd f1 fb e4 3e 69 92 d5 3e e9 9a f0 bd
       -0.06923462 0.44723466 0.41713265 -0.11748297

net.2.weight f4 [128, 128]
000000 bc 24 97 bd 2f 08 d6 bb f8 04 a5 3e 18 23 01 be
       -0.073800534 -0.0065317373 0.32230353 -0.12611043
000010 05 10 77 bf 55 a6 dd 3e 99 f7 a2 3d aa 31 9d 3d
       -0.9650882 0.43290964 0.07957382 0.07675488
000020 aa 34 9e bd 81 56 40 bf d2 0b d6 be 12 9c 60 3e
       -0.077248886 -0.75131994 -0.41805893 0.21934536
000030 09 ff 07 c0 93 15 21 3c e0 ad 0d 3e 52 1f 28 3d
       -2.124941 0.009831804 0.1383586 0.041045494
000040 6a d6 c8 be 32 8f 70 bf 4e a6 7f 3e b1 47 5a bc
       -0.39226085 -0.939685 0.24965784 -0.013322757
000050 c8 f0 dc be 1b db e8 3e 8d 15 f5 3d 4d 84 83 bf
       -0.43152452 0.45479664 0.11967001 -1.027475
000060 c8 b5 11 be a0 f3 9e bf b5 30 fa bf e2 57 ba be
       -0.142295 -1.2418098 -1.9546114 -0.36395174
000070 f1 0a 22 be 1b 80 a1 3c 99 3e bb bc 18 d5 32 bd
       -0.15824486 0.019714406 -0.022856997 -0.043660253
000080 9d f1 ab be 0b 4a ce 3e 96 3c f8 bb 04 ee 40 bf
       -0.33582774 0.40290865 -0.007575582 -0.75363183
000090 60 49 1a 3d bd ea 20 bd a4 58 19 bf c8 00 e6 bf
       0.037667632 -0.039286364 -0.5990088 -1.7968988
0000a0 35 12 a3 be 2a 5a aa bd 93 7f b5 bc fd 44 35 3e
       -0.31849828 -0.08317979 -0.022155559 0.17702098
0000b0 d5 93 7a bd 37 51 84 3e fd a8 11 bd 50 5e 2e 3e
       -0.06117614 0.25843212 -0.03556155 0.17028165
0000c0 1f b1 05 3e a5 f7 6b bd d6 6e a2 3d e9 2c 13 bf
       0.13055848 -0.05760922 0.079312965 -0.574904
0000d0 1f 1e 36 bd 93 5e 5c 3d 5c 5f f4 be bc a1 dd bd
       -0.04446232 0.05380113 -0.47729003 -0.10821864
0000e0 4c 18 e9 3c df 90 c7 bf ff d8 2f 3d 2e b7 3a 3f
       0.028453968 -1.5591086 0.042931553 0.7293576
0000f0 2a da 13 3f f9 ae 19 be 20 99 84 3d 2b 2a 10 3e
       0.57754767 -0.15008153 0.06474519 0.14078586
000100 72 fd fc 3b 02 25 db bd 4e 22 4e be 0d 4f 8c bd
       0.0077206427 -0.10700418 -0.20130274 -0.06851015
000110 49 f6 92 bd 08 90 e9 3d 6c 87 fc 3c f7 0e a9 3c
       -0.071758814 0.11404425 0.030826293 0.020637019
000120 5c 63 6b bd 7c 19 a3 3d 0e 96 95 bd 3b 41 fb bc
       -0.057467803 0.07963845 -0.07304011 -0.030670753
000130 ee 60 cc 3d 31 b5 5b 3d d0 23 6f bd 6e 46 84 3e
       0.09979425 0.053639594 -0.058383763 0.25834984
000140 97 6f 79 3d af 17 2d 3c e0 99 41 3e 90 06 8e bc
       0.060897436 0.010564729 0.18906355 -0.017337114
000150 9f c1 8f 3d 8d 49 90 be 6a db dd 3c 2a ed c6 3c
       0.07019352 -0.28181115 0.027082164 0.02428301
000160 b9 86 02 bd a8 4b 47 3e c3 63 b6 bc ca e8 f2 bd
       -0.031866763 0.19462454 -0.022264367 -0.11860807
000170 89 2e 53 3c fa 24 44 3d 21 05 1c 3d eb c6 34 3d
       0.012889513 0.047886826 0.03809083 0.044135015
000180 f9 3f 30 bd 6f f2 5b bf f2 ea 3f bd fa 2d c3 3d
       -0.04302976 -0.859168 -0.04685492 0.09530254
000190 d8 5a 52 bd 22 00 29 be 7d 0c b9 bd d7 41 92 3c
       -0.051356167 -0.16503957 -0.09035585 0.01785366
0001a0 74 cb e7 bc 8b ef 37 bb 46 00 33 bc 64 e6 46 be
       -0.028295256 -0.0028066363 -0.010925358 -0.19423825
0001b0 c1 5f 8c 3d 22 8d f2 bc 9a 2d 73 3d 77 85 29 bf
       0.06854201 -0.029608313 0.05936966 -0.66219276
0001c0 ea 6d 9a be 97 49 09 3e dc c4 b0 be 36 0b 48 bc
       -0.30161983 0.13406979 -0.34525192 -0.012209704
0001d0 8f 8d 82 3c fd 4c be bc fc ba 8c bd aa 34 dd bc
       0.015936641 -0.02323007 -0.06871602 -0.027002651
0001e0 42 06 fa bd 7b ee 40 bd ed 2b 79 bc 53 7e b9 3d
       -0.12208225 -0.047102433 -0.015208227 0.090572976
0001f0 22 69 65 be ab 8d bf 3e 01 6b 1e bf b3 55 09 3d
       -0.22403386 0.37412772 -0.61882025 0.033528995
000200 2f b5 82 bd 31 7c 85 bc 11 54 71 be 48 4f 7b bd
       -0.06382214 -0.01629457 -0.23567225 -0.061354905
000210 3f 77 18 3f 58 5c 78 be c5 f7 8f bd 1d de 60 3d
       0.59556955 -0.24253976 -0.0702968 0.054899324
000220 42 2d 16 3f 27 66 81 3f 53 49 67 bf 2a 21 25 bd
       0.5866281 1.01093 -0.9034626 -0.04031483
000230 4f bb 5c 3f f9 7f 17 3d 83 f0 b7 be 1a 34 2d 3c
       0.8622331 0.03698728 -0.35925683 0.010571504
000240 ea d0 f1 be 36 0b b5 bf 66 af 8f bf c8 c4 9b 3e
       -0.472297 -1.4144046 -1.1225402 0.3042357
000250 1c 7a d2 bd 2e 7d a3 3e 69 ba 2d bf 4c 8d 04 3f
       -0.10277197 0.31931442 -0.67862564 0.517781
000260 db af 4e 3f ac 81 1b bf e2 16 1c bf 3e 3a 5b 3f
       0.80737084 -0.6074474 -0.60972416 0.85635746
000270 f2 16 34 3f 49 3e 80 be 2e 2b e2 bd 1c 1d fb 3c
       0.7034751 -0.2504752 -0.11043392 0.030653529
000280 fb 08 c5 3e 59 45 65 3e ef a6 65 3d 10 3e 95 3e
       0.38483414 0.22389735 0.056067403 0.29148912
000290 c5 4c 3b 3d 27 3b 9e bd ad c2 a5 3e 53 d4 03 bf
       0.04572751 -0.07726126 0.32375088 -0.51495856
0002a0 02 68 97 be 1d d8 9a 3d ed f5 3c bd c0 80 e2 be
       -0.2957154 0.075607516 -0.04613297 -0.44238853
0002b0 3e 59 98 3d 0e c3 0c bc ab 89 29 bf 8e 78 50 bf
       0.074388966 -0.008591427 -0.6622569 -0.8143395
0002c0 a2 37 84 3e 63 b9 06 3f 1f cb 37 bf ef 15 5f 3f
       0.25823694 0.5262663 -0.71794313 0.87142843
0002d0 30 43 b0 3e 9b 9a 2b bf a9 fc da 3d 7f 95 27 3e
       0.3442626 -0.67032784 0.10692722 0.16365622
0002e0 9f 31 5a 3d a3 27 f2 bf e5 ff 1f c0 d1 ff fe be
       0.05326998 -1.8918346 -2.4999936 -0.49804547
0002f0 6f b9 0f 3e a6 ae 65 bf ce 76 a1 3d 52 94 00 40
       0.14035581 -0.8971962 0.07883988 2.0090528
000300 92 50 41 bd c6 33 a4 bd b3 8b 93 3d 14 0e f1 3e
       -0.04719598 -0.080176875 0.0720438 0.47081053
000310 82 83 a5 3d 84 2d 03 bc c9 56 ba 3c 7c cb 47 bd
       0.08081724 -0.008006457 0.02274646 -0.048778042
000320 96 e4 8a bd 00 61 97 bd 37 29 a3 bc 65 c5 16 bd
       -0.067818806 -0.07391548 -0.019917114 -0.036809344
000330 ff c9 9b 3e 6a fe 5f bf c6 4f 60 bf 71 a9 e5 be
       0.30427548 -0.8749758 -0.87621725 -0.44855836
000340 b0 14 18 3d 3f 22 93 bd 1c f2 21 3d 10 ba a6 be
       0.037129104 -0.07184266 0.039537534 -0.3256383
000350 2b 3c 1c 3c cb 16 13 3f 9c 76 30 bd 28 6d 92 3d
       0.00953583 0.57456654 -0.043081865 0.07149726
000360 95 d1 80 3e 6b d9 b4 be 45 9d 3a 3d 14 1c b2 bd
       0.25159898 -0.35322127 0.04556014 -0.08696762
000370 cb 57 39 3f 24 ad f6 bc 3e 4b 83 3d 1d 2e 66 bd
       0.72399586 -0.030111857 0.06410836 -0.05619632
000380 85 7b 92 bd f0 bd b9 be 60 c0 9e bd 97 a9 d3 be
       -0.07152466 -0.36277723 -0.07751536 -0.41340324
000390 54 df 9e 3d a8 12 06 be 49 16 27 bd da 97 72 be
       0.0775744 -0.13093054 -0.040792737 -0.2369074
0003a0 84 53 8a 3d 1d f5 50 3c 63 2c 0c 3d a1 8f 41 bd
       0.067542106 0.012753752 0.034222018 -0.047256116
0003b0 ff 0d 84 3d 1c 45 93 3d 24 84 4a 3c ce 13 ab bd
       0.06447982 0.07190916 0.012360606 -0.08353387
0003c0 93 e3 54 be 2e a6 1a bf 43 23 00 3e 91 53 70 bd
       -0.20789938 -0.6040982 0.12513451 -0.058673445
0003d0 a4 33 e8 3b cc f2 88 bb c8 8a 97 bf f0 e6 b3 3d
       0.007086234 -0.0041793343 -1.1839228 0.08784282
0003e0 b9 ad f1 3e 3e 18 6e bd 4a 1f 9c bc d0 83 b4 bc
       0.47202852 -0.058128588 -0.019057889 -0.02203551
0003f0 ec 42 f7 bc ac 6b 6d 3e 13 e0 e3 bc 1c 1a ae be
       -0.030183278 0.23185605 -0.027816808 -0.34004295

net.2.bias f4 [128]
000000 34 9f 21 be 54 38 f9 3e fd 39 3a bd 4f 41 8e bd
       -0.15783387 0.48675787 -0.04546546 -0.069460504
000010 46 fd 12 be fc 74 66 3e c5 0a 3c 3d 45 19 b0 bd
       -0.14354429 0.22505563 0.045908708 -0.0859857
000020 67 49 e6 bd 7b e7 a2 bd e3 c1 53 3c 48 a1 a9 3c
       -0.11244469 -0.07954308 0.012924644 0.020706788
000030 5c 46 30 bd 22 a9 ce 3d a9 c1 e3 bd a4 04 b7 bd
       -0.04303585 0.10090853 -0.11120922 -0.08936432
000040 e8 fe 1f bd a5 d3 00 be 9d 59 c8 3e 9e 33 e1 bd
       -0.039061457 -0.12580736 0.3913087 -0.10996173
000050 c5 0b 84 bd b4 17 6e 3f 61 d6 c4 3c b5 a8 d5 3d
       -0.06447557 0.9300492 0.024028005 0.10432569
000060 21 ba 0b 3e e4 48 4a bd 4c 3a dc 3e 1d ec 0c 3f
       0.13645221 -0.04938592 0.43013227 0.5504778
000070 e5 d7 fb bd dc fa 6e bd 41 ae fb bd b4 6d dc ba
       -0.12297038 -0.058344707 -0.12289096 -0.0016817362
000080 30 2e 09 3d e7 fc d8 bd 60 45 04 bd 6e 6b 1d be
       0.033491313 -0.10595112 -0.032292724 -0.15373012
000090 e7 28 aa bd 85 8d 43 bc d5 7d 9c bd 59 c9 4f be
       -0.08308583 -0.011935596 -0.07641188 -0.20291652
0000a0 8d ec 47 be d8 48 e4 bb 07 3c 7d 3b 3c 8c 6b 3c
       -0.1952383 -0.0069666915 0.0038640515 0.014376696
0000b0 32 06 4d be 6b a9 f7 bd 5e 07 3e be 41 fd 27 3d
       -0.20021895 -0.12092861 -0.18557498 0.041013006
0000c0 e2 b8 bc 3d 01 b2 57 3d 48 ae be bc ce 39 da bd
       0.09214951 0.052659992 -0.023276463 -0.106555566
0000d0 22 cc a0 bb 60 30 d0 bd 56 3a 10 be 67 9e ad bd
       -0.004907147 -0.10165477 -0.14084753 -0.084774785
0000e0 42 a5 f4 3e 50 80 fa 3d 3b 2e 20 3d 8b ee a7 bb
       0.47782332 0.12231505 0.03910659 -0.005124872
0000f0 fc 3a b8 bd 9f 20 50 3c 0a c5 2b bd 80 68 93 bd
       -0.089956254 0.01270309 -0.041935958 -0.07197666
000100 b9 39 24 3e 61 a0 02 3f 75 2e 25 3f 9d 6a e6 3b
       0.16037644 0.5102597 0.6452401 0.0070317523
000110 ba 7b 81 bd f4 48 72 3f 54 78 a4 bd 30 ed f2 3e
       -0.06322427 0.9464257 -0.08030763 0.47446585
000120 fe 0d 9e bb c1 eb 3f 3f 3d 72 8b 3e b7 5f 8b 3d
       -0.0048234453 0.74969107 0.27235594 0.068053655
000130 7f b7 89 3d 8e d3 1c 3e a9 a3 28 3c 02 6d d1 3c
       0.06724452 0.15315077 0.010292926 0.025564674
000140 ce 96 f9 3e e9 1b 2e bc 8f 08 a0 bd 9f 4e 82 be
       0.48747867 -0.0106267715 -0.078141324 -0.25450608
000150 6b da bd 3b de 9e 65 bd 2a 87 24 be cd 6f db 3c
       0.0057938597 -0.05605971 -0.16067186 0.02678671
000160 02 6b 80 3d 22 92 5a 3f 93 25 ca bd cc 37 c2 bc
       0.0627041 0.8537923 -0.09870448 -0.023708247
000170 a7 b6 5b be e8 3f 00 be 13 78 2a 3e 70 6b 01 bd
       -0.21456395 -0.12524378 0.16647367 -0.0315966
000180 7e 68 a2 3c 4a 47 a5 bd cf dc ab bd f7 6f 4f be
       0.019825216 -0.08070238 -0.08391725 -0.20257555
000190 ff 2c 0a 3f d9 10 05 be 0e a2 83 bc f1 00 0d bd
       0.5397491 -0.12994708 -0.016068485 -0.034424726
0001a0 5f bc bb 3d 71 a1 1b 3f 64 bf 8c ba ad 95 a1 bd
       0.09166788 0.60793215 -0.0010738191 -0.078898765
0001b0 9f 2c 93 3d ee 3c 96 bd e8 8c 9b 39 3b 4f 94 be
       0.07186245 -0.0733584 0.00029668887 -0.28966698
0001c0 cf de c8 3c 6f 72 01 bb 88 31 39 3e 69 93 04 3e
       0.024520306 -0.0019752046 0.18085301 0.12946858
0001d0 f9 05 37 3e 6c c2 e5 bc ea 2b 9b 3e 98 5b fe bd
       0.17873372 -0.02804681 0.3030694 -0.12419814
0001e0 a2 2a 03 be 79 fb 32 3c 40 35 3b 3d b1 9e a0 bd
       -0.12809232 0.010924214 0.04570508 -0.07842768
0001f0 55 db 1c 3f 28 6a 29 3d 68 b4 e7 bd 0c cd 83 3e
       0.61272174 0.041361004 -0.11313707 0.25742376

net.4.weight f4 [5, 128]
000000 b3 38 ac 3e 87 84 45 3f 96 1a c2 bd 83 74 2b 3f
       0.33637008 0.77155346 -0.09477727 0.6697466
000010 60 ed 1b bc 25 82 90 3f d4 2a d1 bd ae b9 60 bd
       -0.009517044 1.1289717 -0.10213247 -0.054864578
000020 ba e2 9c 3d b2 59 9a bd cc 1c a3 bc 1e 86 00 bb
       0.07660432 -0.07536639 -0.019911192 -0.001961119
000030 a3 5d 21 3c c0 0b 3d 3d 5e 32 aa 3e 16 16 8b 3d
       0.009848985 0.046153784 0.33241552 0.06791322
000040 2a 60 50 bc f0 22 af bd e5 c9 42 3f fb a0 db 3d
       -0.01271824 -0.08551586 0.76089317 0.10724064
000050 fb 85 09 3d e8 66 6f bf 49 85 fb 3c e2 be f6 3c
       0.03357504 -0.935164 0.030703204 0.030120317
000060 79 2c 69 3e 69 5f 06 3d 75 84 74 bf 66 dc 95 3e
       0.22770871 0.032805834 -0.95514613 0.29269713
000070 58 a9 26 bd c2 1e 47 bd ac 85 ba bd 0e fd a4 3f
       -0.040688843 -0.048613317 -0.09107527 1.2889726
000080 5e fe ec bd 66 28 75 bd b8 77 2f 3d 0a d6 60 bd
       -0.11571954 -0.05985298 0.042838782 -0.054891624
000090 09 76 1d bc 0d d8 98 bc 7d 2e 97 bb e3 86 aa 3e
       -0.009610661 -0.018657709 -0.004613696 0.33306035
0000a0 9e f2 12 ba 9b ca 47 3d 19 1c 53 3d aa 56 49 bd
       -0.0005605611 0.048777204 0.051540468 -0.049154915
0000b0 e7 8a 63 3e 87 db fa bc e4 82 a8 3e 47 5a d1 3e
       0.22220956 -0.030622257 0.32912362 0.4088919
0000c0 86 eb 2a 3e 1d 3e 80 3f f3 cf 2e 3c c1 25 68 bf
       0.16691408 1.0018955 0.010669696 -0.9068261
0000d0 8c 84 27 be 24 9f eb 3c 9d e4 06 3e d0 9d 10 bc
       -0.16359156 0.028762408 0.13173147 -0.008826688
0000e0 e3 5c cd bf 78 4a d2 3e 42 9b ab 3d b6 6d aa bd
       -1.6043972 0.4107244 0.083792225 -0.08321707
0000f0 69 2e d5 bc f9 03 86 bd b3 66 82 bd 8b 79 3d be
       -0.026023107 -0.065437265 -0.063672446 -0.18503396
000100 a2 b4 11 bd 20 cd 16 be 44 32 92 bf 47 26 13 be
       -0.035572655 -0.14726686 -1.142159 -0.1437007
000110 14 c9 b2 bd a8 c7 b5 bf f8 8d 8d 3d 06 fc 0b 3d
       -0.08729759 -1.4201555 0.06911844 0.034175895
000120 14 58 8f bb f2 4e 9a bf 07 01 fd 3e ec d3 b4 bd
       -0.0043745134 -1.2055342 0.49414846 -0.088294834
000130 8b 14 b4 bd e7 53 4f 3f 4b 74 c3 3d 1f d1 5b bd
       -0.08792981 0.809874 0.095436655 -0.05366623
000140 13 22 24 3e e3 6c 82 3d 65 60 fd 3c 5a 85 8e 3d
       0.16028623 0.06368425 0.030929754 0.069590285
000150 9c cb d3 bd ab 96 95 ba b7 6c 05 3e 86 b6 fe 3e
       -0.1034157 -0.00114127 0.13029753 0.4974863
000160 8d d7 3a 3d 47 fa d7 be f1 ef c2 bd 9a 8a 9e be
       0.04561572 -0.42183134 -0.095184214 -0.3096512
000170 47 a7 d1 3e 3a 00 87 3e 88 9c 9d 3e 8d a6 be 3e
       0.40947935 0.2636736 0.30783486 0.37236443
000180 18 73 86 3d 38 90 5a 3d 51 56 92 3b aa 56 fd 3e
       0.06564921 0.053360194 0.004465856 0.49480182
000190 c1 77 d1 be e3 aa e6 bc 37 a2 8a 3b 5d 57 b6 bc
       -0.40911677 -0.028157657 0.0042307633 -0.022258455
0001a0 ad b8 27 3f e8 4e 62 bf 8b 47 31 bd 38 37 82 3c
       0.6551617 -0.8840165 -0.04328112 0.015895471
0001b0 60 d4 68 3f b9 cf 8e 3e d3 62 a0 bd fd 82 c6 3d
       0.9094906 0.27892855 -0.07831349 0.09692953
0001c0 8e 97 0c be 7c 8c d4 bd 4f ff 31 be 90 b8 a6 3e
       -0.13729689 -0.10378358 -0.17382549 0.32562685
0001d0 78 04 d8 3e 2b a4 2c be a2 74 b4 bf 66 fc 8f 3d
       0.4219091 -0.168595 -1.4098094 0.07030563
0001e0 3b ee cd bd 71 ba e2 bd 8b ea 37 bd 50 43 38 bd
       -0.100552045 -0.11070717 -0.044901412 -0.04498607
0001f0 da ab b9 bf 55 6a 33 bf 78 d9 92 be 2c 34 b7 3c
       -1.450557 -0.70084125 -0.2868154 0.022363745
000200 39 2e e3 3e d1 b4 a3 3f ab 79 74 be 89 64 89 3e
       0.44371203 1.2789556 -0.23874538 0.26834515
000210 5c 4a f2 bc 95 52 0a bf 0b ce 94 3f 4b 55 68 3d
       -0.029576473 -0.5403226 1.1625379 0.056721967
000220 96 61 72 3d 55 43 0a bd 91 ab a6 3d f2 b7 89 3d
       0.059175096 -0.03375562 0.081381924 0.06724538
000230 11 1e d6 3c 15 ed 30 3f 23 0e 06 3f 2e 26 05 3f
       0.026137384 0.6911176 0.5236532 0.5201138
000240 92 87 de bc 39 94 10 3d d1 2b 8b 3f a6 a9 42 bb
       -0.027164254 0.035297606 1.0872747 -0.002970317
000250 73 86 1a bc e9 71 de bf e4 5c c6 3c 24 fe 8d bf
       -0.009431469 -1.7378513 0.024214216 -1.1093183
000260 7b 76 17 be 73 9c 79 bd 36 b1 e9 be 62 59 24 bf
       -0.1479129 -0.060940217 -0.45643014 -0.6419889
000270 c3 d9 94 3d 40 65 97 3d 50 7f 30 3d 6c d1 8f bf
       0.07268097 0.07392359 0.043090165 -1.1235785
000280 0b 8f 19 bf 4e 59 5f bd c2 af 6a bd 49 2f 8b 3c
       -0.5998389 -0.054528527 -0.057296522 0.01699032
000290 35 db 9d 3d 0f 25 90 3c 95 06 68 3d e0 c8 fa 3e
       0.07707826 0.017595796 0.056646902 0.4898138
0002a0 6c dc b5 3e 85 fd 90 3c f5 59 d1 bc 0f 5f ad 3c
       0.3551973 0.017699013 -0.02555559 0.021163492
0002b0 1f 7a 4b 3f 3d a0 e9 bc 2a cc ec 3e ed 28 18 3f
       0.79483217 -0.02851879 0.46249515 0.5943745
0002c0 f5 c0 21 3f ec 4e 25 3f dd df 87 3c 39 cc 04 3e
       0.63185054 0.6457355 0.016586239 0.1296853
0002d0 f1 a3 21 bf 64 c5 7f 3d 16 70 af bf c8 87 3f bd
       -0.6314078 0.062444106 -1.3706081 -0.04676035
0002e0 77 c7 0a bf 3c b6 c5 3c 90 60 59 3d 06 5c 56 be
       -0.5421061 0.024134748 0.053070605 -0.20933542
0002f0 6c 1e fe bc ec 33 be 3c 6b 08 a1 3d b1 3c 95 be
       -0.031020366 0.023218118 0.07862934 -0.29147866
000300 35 86 0e bf bc da b6 bf dd da cc bf 1d 6b 24 bd
       -0.55673534 -1.4285502 -1.6004292 -0.040141214
000310 c6 16 61 be c6 32 b9 bf 84 a6 87 3d 21 6f e0 bf
       -0.21981344 -1.446862 0.06623557 -1.7533914
000320 b8 d4 3b bd 1e 15 3f bf f7 15 06 3f b7 db 29 be
       -0.04585716 -0.746416 0.52377266 -0.16587721
000330 ec ba 94 bb a1 8a a8 bf b3 4d a6 3c cf 38 b5 bd
       -0.0045388844 -1.3167306 0.020300722 -0.08848726
000340 f8 b9 83 bf c4 73 0b 3d e0 82 9f 3c e2 ca 5c 3f
       -1.0291128 0.03404595 0.019471586 0.86247075
000350 33 34 c0 3c 77 88 59 bd 3c 36 8a bd b7 15 b1 3e
       0.02346239 -0.05310866 -0.06748626 0.3458688
000360 7d 23 6d bf b9 17 c0 bf 31 f4 53 3d b6 82 62 3f
       -0.92632276 -1.500724 0.05174655 0.884807
000370 1f b4 f5 3e aa 08 fc be 7d 92 3b 3f 03 85 3b 3f
       0.47988984 -0.4922536 0.732704 0.73249835
000380 1e 0a 47 bc d3 70 b0 3b 62 b3 48 3d 73 52 d9 3e
       -0.012148408 0.0053845434 0.048999198 0.42445716
000390 cb 4e bd be aa a8 02 39 7f a8 55 3d 77 7b 9a 3d
       -0.36974177 0.00012460598 0.052162644 0.0754308
0003a0 e1 1b 03 40 a6 7d 62 bc 18 7b bb be e0 08 c6 3d
       2.0485766 -0.013823902 -0.3661735 0.096696615
0003b0 d9 4c 1a bf c6 4d fb 3e c7 49 c3 bc 1c c9 ce 3e
       -0.6027351 0.49082774 -0.02383889 0.4038781
0003c0 2e fd 89 be f1 88 68 be 4d cd 9e be 5b 60 10 bf
       -0.26950973 -0.22708489 -0.31016007 -0.56397027
0003d0 78 2a 2b be 07 43 8c be 51 e5 7d bf 7b 0c 75 bd
       -0.1671542 -0.27394888 -0.99178034 -0.059826355
0003e0 cc de 49 3d 60 d8 62 be 7c 12 16 bd 5d b3 ad 3c
       0.04928474 -0.22152853 -0.03663872 0.021203691
0003f0 ae d0 77 bf 54 f8 a4 3e 19 40 3d bd 67 e9 04 3f
       -0.96802795 0.3222071 -0.046203706 0.51918644

net.4.bias f4 [5]
000000 74 02 87 3e 2e 0e 0b be b1 74 c4 be f3 b4 c2 3e
       0.2636906 -0.13579628 -0.38370278 0.38028678
000010 52 1a a7 3d
       0.08159317
