traffic_dqn.pth (torch, 97861 bytes, 6 tensors)

net.0.weight f4 [128, 50]
0	0xbdc63e6d	-0.096798755
1	0x3e04ea1d	0.12979932
2	0xbd94eded	-0.07271943
3	0x3bb95d3b	0.005656866
4	0x3d9a96ec	0.07548317
5	0xbe0ad45b	-0.1355757
6	0xbe08c911	-0.13357951
7	0xbd300c9a	-0.042980768
8	0x3cf0155f	0.029307066
9	0xbc21b592	-0.00986995
10	0xbc64daa1	-0.013968141
11	0x3d2628e0	0.040566325
12	0x3d529c54	0.051418617
13	0x3d1259c1	0.035730127
14	0xbdbb61e5	-0.09149531
15	0x3df3dcaf	0.119073264
16	0xbde5f19e	-0.112277254
17	0xbe08ec8a	-0.13371482
18	0x3b163947	0.0022922324
19	0x3d02f883	0.03197528
20	0x3cd3cc08	0.025854126
21	0x3dd6fcbb	0.10497423
22	0xbddccd63	-0.10781362
23	0x3e082ea0	0.13299036
24	0x3d897a48	0.067127764
25	0x3d83d757	0.06437557
26	0xbdfaac9b	-0.12239953
27	0x3c6b51d3	0.01436277
28	0xbd96fd3c	-0.073725194
29	0xbe0b1f09	-0.13586058
30	0xbdf32db1	-0.11873949
31	0x3dcc068f	0.099621885
32	0x3e0cfec1	0.13769056
33	0xbdf3bc55	-0.11901156
34	0x3a096896	0.000524172
35	0xbdefad6b	-0.11702999
36	0xbcc883ad	-0.02447685
37	0x3d2cec5a	0.04221759
38	0x3d7de3a6	0.06198468
39	0x3d54b2cc	0.051928326
40	0xbd8b51ce	-0.068027124
41	0x3dacc498	0.08435935
42	0xbd823330	-0.063574195
43	0xbcd2a863	-0.025715059
44	0xbb3bdfb5	-0.0028667275
45	0xbdbf87ff	-0.09352111
46	0x3dc3b532	0.09556045
47	0xbde36906	-0.11104016
48	0x3c27d941	0.010244668
49	0x3ca64b9d	0.020299727
50	0xbe21fd31	-0.15819241
51	0x3dd12af0	0.10213268
52	0xbe0319aa	-0.12802759
53	0x3c119ddf	0.008887737
54	0xbb96e8f6	-0.004605408
55	0x3aba96f9	0.0014235667
56	0xbcbcc24d	-0.023041869
57	0xbd982f32	-0.07430877
58	0xbd87c800	-0.06629944
59	0x3c9de078	0.019272074
60	0xbd517b97	-0.051143255
61	0xbd775511	-0.06038386
62	0xbd70718b	-0.058702033
63	0x3dd78a9b	0.10524484
64	0x3d1f3282	0.038866527
65	0x3e03bda1	0.12865306
66	0x3d9d10d7	0.076692276
67	0xbd141e5e	-0.036161773
68	0xbc9cabb3	-0.019124841
69	0x3ddbb901	0.10728646
70	0xbd2258af	-0.039635357
71	0xbd8aca29	-0.0677684
72	0xbcfdf258	-0.030999348
73	0xbdee8257	-0.11645954
74	0x3d2c50fe	0.042069428
75	0xbd499306	-0.049212478
76	0x3dd8570e	0.10563479
77	0x3db1ef91	0.08688272
78	0xbe0ae49e	-0.13563773
79	0x3d98d940	0.07463312
80	0x3a9daf2c	0.0012030355
81	0x3cbc3b72	0.022977564
82	0x3da869fe	0.082233414
83	0xbc69b777	-0.014264933
84	0x3d515675	0.051107842
85	0x3dc9fa90	0.09862244
86	0x3de76db3	0.1130022
87	0xbdc1e4ad	-0.094674446
88	0xbe19f679	-0.15035428
89	0x3dcb4ea9	0.099271126
90	0x3a0b8525	0.0005322269
91	0x3df5619d	0.11981509
92	0xbe07116a	-0.13190237
93	0x3e01825a	0.12647381
94	0xbc4bc6bd	-0.01243752
95	0xbdd25705	-0.10270504
96	0xbdf43e19	-0.11925907
97	0x3ded65c9	0.115916796
98	0x3db17df6	0.08666603
99	0xbe28ae74	-0.16472799
100	0xbef66318	-0.48122478
101	0x3e8b8f69	0.2725785
102	0x3f0d6f3e	0.5524787
103	0x3e096a69	0.13419499
104	0x3e7cc20d	0.246834
105	0x3e0ac520	0.1355176
106	0x3e0da041	0.13830663
107	0xbe0ce324	-0.13758522
108	0x3d084226	0.03326621
109	0xbd962a6e	-0.073323116
110	0x3d4528f3	0.048134755
111	0x3e801be5	0.25021282
112	0x3c8f3f64	0.017486282
113	0xbe91a51f	-0.2844629
114	0x3d8a273d	0.06745765
115	0xbe02e32c	-0.12781972
116	0xbd92779b	-0.07151719
117	0xbec15a0b	-0.3776401
118	0x3ed4088d	0.41412774
119	0xbe43ecc8	-0.19133294
120	0x3f262efc	0.6491544
121	0xbe52dd69	-0.20592274
122	0x3f9fc9b5	1.2483431
123	0x3d6fb72b	0.058524292
124	0x3eea2067	0.45727846
125	0x3f5c5520	0.8606739
126	0xbe0facac	-0.14030713
127	0x3f28fd7d	0.6601179
128	0xbe8c7e80	-0.27440262
129	0x3f4626ea	0.7740313
130	0x3de74748	0.11292893
131	0x3e0b1441	0.13581945
132	0x3e671f1c	0.22570461
133	0xbdb15f2c	-0.08660731
134	0x3e3bc9df	0.18338726
135	0x3ec2c2dd	0.38039294
136	0x3ec7d869	0.39032295
137	0x3e77690c	0.24161166
138	0x3e4018ac	0.18759412
139	0x3eb5cda9	0.3550847
140	0x3edd4f61	0.43224624
141	0x3eae687a	0.34064084
142	0x3ec98445	0.39358726
143	0xbdcfd3bd	-0.10147808
144	0x3f20aa91	0.62760264
145	0xbe255069	-0.16143955
146	0xbe37daa7	-0.17954503
147	0xbe403814	-0.18771392
148	0xbe309927	-0.17245923
149	0xbe3548bf	-0.17703532
150	0x3ea3a8a4	0.319646
151	0x3e723e92	0.23656681
152	0x3f365459	0.71222454
153	0xbcefd772	-0.029277537
154	0x3f53116c	0.8244846
155	0xbde6fe47	-0.11278968
156	0x3f13b60a	0.57699645
157	0xbe02f1a2	-0.12787488
158	0x3f1f3922	0.6219655
159	0x3e64fd3c	0.22362226
160	0x3eb8ec29	0.36117676
161	0x3f1bd92e	0.60878265
162	0x3e135456	0.1438764
163	0x3f390c85	0.7228473
164	0x3dcdd84c	0.10051021
165	0x3fa79124	1.3091168
166	0x3d894e93	0.0670444
167	0x3e49aa30	0.19693828
168	0x3de521a9	0.11188061
169	0x3bd22a24	0.006413715
170	0x3dcf72f0	0.101293445
171	0x3f0bc98f	0.5460443
172	0xbefc8c03	-0.4932557
173	0x3eaed1b0	0.34144354
174	0x3f4b908a	0.79517424
175	0xbe83d38d	-0.25747338
176	0x3e078dae	0.1323764
177	0xbb88502a	-0.004159947
178	0xbf806e4c	-1.003366
179	0x3fe57427	1.7926072
180	0xbed1a86e	-0.40948814
181	0xbf244c3a	-0.6417881
182	0xbd4dbd91	-0.050229613
183	0xbe124e31	-0.1428764
184	0xbf4b6d84	-0.7946398
185	0x3f1de06c	0.61670566
186	0xbe5f27d1	-0.21792533
187	0x3f3e1b9a	0.74260867
188	0xbf1b213a	-0.60597575
189	0x3f33ab98	0.70183706
190	0xbf1e4f04	-0.6183932
191	0x3f658d34	0.89668584
192	0xbf0bc3b2	-0.5459548
193	0x3f617377	0.8806681
194	0xbefbca10	-0.491776
195	0x3efee014	0.49780333
196	0xbf3e67a7	-0.7437691
197	0x3f974c0d	1.1820084
198	0xbfbc70f2	-1.4721968
199	0x3d8e3725	0.06944112
200	0x3d313222	0.0432607
201	0x3f6c3ce7	0.9228043
202	0x3e863fc8	0.26220536
203	0x3e992fdb	0.29919323
204	0x3edd9816	0.43280095
205	0x3f84d080	1.0376129
206	0xbe207ced	-0.15672655
207	0x3f75d484	0.960274
208	0xbf619ae4	-0.8812697
209	0x3f520ec7	0.820538
210	0xbf134a0a	-0.5753485
211	0xbd384710	-0.044989645
212	0xbef7f9e9	-0.48432854
213	0x3d780904	0.060555473
214	0xbeb55bc5	-0.35421577
215	0xbd9bb342	-0.0760255
216	0xbf0067ae	-0.501582
217	0x3eedb3cc	0.46426237
218	0x3d7bfaec	0.061518595
219	0x3eb96d68	0.36216283
220	0x3cf1b9c2	0.029507522
221	0x3ff6309b	1.9233583
222	0xbd630301	-0.055422787
223	0x3f702144	0.9380076
224	0xbef781a1	-0.48341087
225	0x3dee96d5	0.11649863
226	0x3d3fd314	0.04683216
227	0xbec4ca9e	-0.38435835
228	0x3f224a1f	0.6339435
229	0x3d261a8a	0.040552653
230	0x3ee87f1b	0.45409474
231	0xbb2111e9	-0.0024577326
232	0x3ee35a99	0.44405058
233	0xbda02f65	-0.0782154
234	0x3ee18217	0.44044563
235	0xbe04a74a	-0.1295444
236	0x3dcc4642	0.09974338
237	0x3e9657ef	0.29363963
238	0xbc21241b	-0.009835268
239	0x3f8d9146	1.1059959
240	0x3d542667	0.051794436
241	0x3f967645	1.1754843
242	0x3e4a986f	0.19784711
243	0x3f2a051b	0.6641404
244	0xbe415bd8	-0.18882692
245	0x3f3ba633	0.73300475
246	0xbe01d68e	-0.12679502
247	0x3f10ed94	0.56612515
248	0xc0190466	-2.3908935
249	0x3f27256b	0.6529147
250	0xbeb8ed05	-0.36118332
251	0x3e16cda8	0.14726889
252	0x3e8f779c	0.28020942
253	0x3d50a9ea	0.050943293
254	0xbefcaa5d	-0.49348727
255	0x3ec35322	0.38149363

net.0.bias f4 [128]
0	0xbcfe3118	-0.03102927
1	0x3d408c7e	0.047008984
2	0xbedf0fa3	-0.43566617
3	0x3f01bf5f	0.50682634
4	0x3ec0e27a	0.37672788
5	0xbe4cdcc9	-0.20006098
6	0x3c081ee1	0.008308143
7	0xbdd72fb3	-0.10507145
8	0x3e2a15b6	0.16609845
9	0x3db7a224	0.08966473
10	0xbe137fc2	-0.14404204
11	0xbf35f45f	-0.71076006
12	0x3e6bb8fb	0.23019783
13	0x3d31734a	0.04332284
14	0xbef7ad6c	-0.48374498
15	0xbca01c37	-0.019544704
16	0xbde82977	-0.11336034
17	0xbd74751a	-0.05968199
18	0x3f1531c3	0.58279055
19	0x3efe0e35	0.49620214
20	0xbc30351f	-0.010754853
21	0xbf1fd31b	-0.62431496
22	0x3ebd2348	0.3694098
23	0x3c74def5	0.014945735
24	0xbed76896	-0.4207198
25	0x3e87386c	0.26410234
26	0x3f33477a	0.7003094
27	0x3ede7b2b	0.43453345
28	0x3e5e6fca	0.21722332
29	0x3f0efa39	0.5585056
30	0xbdd19431	-0.102333434
31	0xbe1e002a	-0.1542975
32	0x3d524be1	0.051341895
33	0xbe223a42	-0.15842536
34	0x3dd7240a	0.10504921
35	0x3f333ee7	0.70017856
36	0x3d3cdb87	0.046107795
37	0x3d91a022	0.07110621
38	0x3e9badda	0.30406076
39	0x3e315647	0.17318068
40	0x3dc3db43	0.09563305
41	0xbe2435ad	-0.160361
42	0xbe1eceb6	-0.15508541
43	0xbf6daf30	-0.9284544
44	0xbde57d8b	-0.11205586
45	0x3e2fdb89	0.1717359
46	0xbf1070f7	-0.5642237
47	0xbf593688	-0.84848833
48	0xbf1a0ce1	-0.601759
49	0x3f31453b	0.6924626
50	0xbf77cdb5	-0.9679826
51	0x3dd22e45	0.102627315
52	0x3e2ed40c	0.17073077
53	0xbf321834	-0.6956818
54	0xbc2f8e39	-0.010715061
55	0xbd4fafd7	-0.050704803
56	0x3c7cee0e	0.015437616
57	0x3f028ce9	0.5099626
58	0xbf016fb9	-0.505611
59	0xbc5adaac	-0.0133577995
60	0xbd0eaea6	-0.034834526
61	0x3e2ab5e9	0.16670956
62	0xbe14eeda	-0.1454424
63	0x3eaf195e	0.3419904
64	0xbe375a68	-0.17905581
65	0x3b9de93c	0.0048190635
66	0x3caedfa4	0.021346875
67	0x3e2bac8e	0.16765043
68	0xbde739cb	-0.1129032
69	0xbdc480f8	-0.09594911
70	0xbd8a1dee	-0.0674399
71	0xbd3c30cc	-0.045944974
72	0xbd9390a4	-0.072053224
73	0xbe3288c9	-0.17434992
74	0xbe1ac130	-0.15112758
75	0x3f65daa0	0.8978672
76	0xbd390d1e	-0.045178525
77	0xbf124535	-0.5713685
78	0x3f17fe41	0.59372336
79	0xbf54037f	-0.82817835
80	0xbd751c08	-0.059841186
81	0xbe1847f4	-0.14871198
82	0xbef0b966	-0.47016448
83	0xbf018e5d	-0.50607854
84	0x3dc95a8f	0.09831726
85	0x3ec81f04	0.39086163
86	0xbd74a56d	-0.059728075
87	0x3dd21673	0.10258188
88	0x3ddf0dd5	0.1089131
89	0x3f032a58	0.51236486
90	0x3c92f4f2	0.017939065
91	0x3d661618	0.056173414
92	0x3e156cba	0.14592257
93	0xbd432435	-0.04764195
94	0x3dad4309	0.084600516
95	0x3dc18b6b	0.0945042
96	0x3f095576	0.5364603
97	0x3f36ce5e	0.7140864
98	0xbe0482d2	-0.12940529
99	0xbee5e457	-0.44900772
100	0xbdcfdd21	-0.10149599
101	0x3d866dac	0.06563887
102	0x3e87e945	0.26545158
103	0xbee1fe2a	-0.44139224
104	0xbe1304ad	-0.14357252
105	0xbe181a84	-0.14853865
106	0xbde4a042	-0.11163379
107	0x3f044323	0.5166494
108	0xbd859611	-0.065227635
109	0xbe205269	-0.15656437
110	0xbe1cb465	-0.1530319
111	0x3d9c8882	0.07643224
112	0x3f17c570	0.5928564
113	0xbf31b2e0	-0.69413567
114	0xbd214031	-0.03936786
115	0xbead40d2	-0.33838516
116	0x3cdab88d	0.026699329
117	0xbe1fe042	-0.15612891
118	0xbec382df	-0.38185784
119	0xbce699df	-0.028149543
120	0x3e7c7827	0.2465521
121	0xbdb7fd96	-0.089839146
122	0xbdd28377	-0.10278981
123	0xbe18973d	-0.14901443
124	0xbd8dcae1	-0.06923462
125	0x3e84e1de	0.25953573
126	0x3f3ad9e4	0.72988725
127	0xbef19041	-0.4718037

net.2.weight f4 [128, 128]
0	0xbd9724bc	-0.073800534
1	0xbbd6082f	-0.0065317373
2	0x3e6a5c28	0.22886717
3	0xbdb5041f	-0.08838677
4	0xbd9f95f1	-0.07792271
5	0x3e9f739b	0.31142887
6	0x3da2f799	0.07957382
7	0x3d9d31aa	0.07675488
8	0xbf6450cb	-0.8918578
9	0xbf405681	-0.75131994
10	0xbec7da52	-0.39033753
11	0x3d79dffa	0.061004616
12	0xc034c896	-2.8247428
13	0x3c211593	0.009831804
14	0xbdbd9879	-0.092575975
15	0x3d281f52	0.041045494
16	0xbfad5362	-1.3541071
17	0xbf708f32	-0.939685
18	0x3ec0e477	0.37674305
19	0xbe39abdd	-0.18131967
20	0xbf30f2ab	-0.6912028
21	0x3ed4b61d	0.4154519
22	0x3df5158d	0.11967001
23	0xbf8d593d	-1.1042858
24	0xbe6d4f32	-0.23174742
25	0xc02253f5	-2.5363743
26	0xc011d1a3	-2.2784202
27	0xbe967d0c	-0.29392278
28	0xbf295c41	-0.66156393
29	0x3d1c7cab	0.03820483
30	0xbcbb3e99	-0.022856997
31	0xbd32d518	-0.043660253
32	0xbeabf19d	-0.33582774
33	0x3ed4b6b0	0.4154563
34	0xbbf83c96	-0.007575582
35	0xbed1a6f2	-0.40947682
36	0x3d1a4960	0.037667632
37	0xbd20eabd	-0.039286364
38	0xbf18bd17	-0.5966353
39	0xc01301b1	-2.2969782
40	0xbea31235	-0.31849828
41	0xbdaa5a2a	-0.08317979
42	0xbcb57f93	-0.022155559
43	0x3e354971	0.17703797
44	0xbd7a93d5	-0.06117614
45	0x3e772351	0.24134566
46	0x3e2fadb6	0.17156109
47	0x3d85d9b2	0.06535663
48	0x3dca566d	0.09879766
49	0xbdbeb534	-0.093119055
50	0xbbdc2f85	-0.006719532
51	0xbf132ce9	-0.574904
52	0x3e53969c	0.20662922
53	0x3d9f75e0	0.07786155
54	0xbef45f5c	-0.47729003
55	0xbddda1bc	-0.10821864
56	0x3ce9184c	0.028453968
57	0xc021a7fe	-2.5258784
58	0x3e8f603d	0.2800311
59	0xbdcde45a	-0.1005332
60	0x3e3f7d0d	0.18700047
61	0xbeb16a95	-0.34651628
62	0x3d849920	0.06474519
63	0x3e2edaae	0.17075607
64	0x3bfcfd72	0.0077206427
65	0xbddb2502	-0.10700418
66	0xbe4e224e	-0.20130274
67	0xbd8c4f0d	-0.06851015
68	0xbd92f649	-0.071758814
69	0x3de99008	0.11404425
70	0x3cfc876c	0.030826293
71	0x3ca90ef7	0.020637019
72	0xbd6b635c	-0.057467803
73	0x3da3197c	0.07963845
74	0xbd95960e	-0.07304011
75	0x3e0f934b	0.14021032
76	0x3dcc60ee	0.09979425
77	0x3e018eb8	0.12652099
78	0xbe8ab4e5	-0.27091137
79	0x3f6982e0	0.91215324
80	0x3dee7733	0.11643829
81	0x3c2d17af	0.010564729
82	0x3e6c289b	0.23062365
83	0x3e52a80a	0.20571914
84	0x3d8fc19f	0.07019352
85	0xbea067db	-0.31329235
86	0x3cdddb6a	0.027082164
87	0x3cc6ed2a	0.02428301
88	0xbd0286b9	-0.031866763
89	0x3ea9e89a	0.33185273
90	0xbcb663c3	-0.022264367
91	0xbdf2e8ca	-0.11860807
92	0xbfb361fa	-1.4014275
93	0x3d4424fa	0.047886826
94	0x3d1c0521	0.03809083
95	0x3b6f7655	0.0036539037
96	0xbe2da543	-0.16957574
97	0xbf0d5c5d	-0.5521906
98	0xbd3feaf2	-0.04685492
99	0xbe29f7c2	-0.16598418
100	0xbd525ad8	-0.051356167
101	0xbe290022	-0.16503957
102	0xbeb59c62	-0.35470873
103	0xbe04c12a	-0.12964311
104	0xbce7cb74	-0.028295256
105	0xbb37ef8b	-0.0028066363
106	0xbc330046	-0.010925358
107	0xbe1d50b7	-0.15362822
108	0x3d8c5fc1	0.06854201
109	0xbcf28d22	-0.029608313
110	0x3d732d9a	0.05936966
111	0xbf298577	-0.66219276
112	0xbd2f0e06	-0.042737983
113	0xbecc139d	-0.39858714
114	0xbeba4540	-0.3638096
115	0x3ba58afe	0.0050519696
116	0x3c828d8f	0.015936641
117	0xbcbe4cfd	-0.02323007
118	0xbe171168	-0.14752734
119	0xbcdd34aa	-0.027002651
120	0x3d153f75	0.03643747
121	0xbd40ee7b	-0.047102433
122	0xbc792bed	-0.015208227
123	0x3db97e53	0.090572976
124	0xbe656922	-0.22403386
125	0x3f657aa3	0.89640254
126	0xbf0ae3aa	-0.5425364
127	0xbe313824	-0.17306572
128	0xbd82b52f	-0.06382214
129	0xbc857c31	-0.01629457
130	0xbf37c090	-0.717782
131	0x3c37baf6	0.011214009
132	0x3fb1662f	1.3859309
133	0x3e2453b4	0.16047555
134	0xbd8ff7c5	-0.0702968
135	0x3d60de1d	0.054899324
136	0xbe36dee2	-0.1785846
137	0x3f816627	1.01093
138	0xbf674953	-0.9034626
139	0xbf02abc5	-0.5104335
140	0x4091d767	4.557544
141	0x3d177ff9	0.03698728
142	0xbeb7f083	-0.35925683
143	0x3c2d341a	0.010571504
144	0xbed9ab1f	-0.42513368
145	0xbfb50b36	-1.4144046
146	0xbf81935c	-1.0123096
147	0x3eed8c5d	0.4639615
148	0xbeec222b	-0.46119818
149	0x3f0e6a4a	0.55630934
150	0xbf2dba69	-0.67862564
151	0x3f048d4c	0.517781
152	0x3f8e3bf6	1.1112049
153	0x403a0df9	2.9071028
154	0xbf216b41	-0.6305428
155	0x3f5b3a3e	0.85635746
156	0x3ff2e3e2	1.8975794
157	0xbf57c98d	-0.8429192
158	0xbde22b2e	-0.11043392
159	0x3cfb1d1c	0.030653529
160	0x3eb4c596	0.35306996
161	0x3eb93b2f	0.36177966
162	0x3d65a6ef	0.056067403
163	0x3e953e10	0.29148912
164	0x3d3b4cc5	0.04572751
165	0xbd9e3b27	-0.07726126
166	0xbe20436a	-0.15650716
167	0xbf11b59f	-0.56917757
168	0xbe976802	-0.2957154
169	0x3d9ad81d	0.075607516
170	0xbd3cf5ed	-0.04613297
171	0xbf247ecf	-0.64255995
172	0x3d98593e	0.074388966
173	0xbdbf3404	-0.09336093
174	0xbfe15b22	-1.7605937
175	0xbfb477cc	-1.4099059
176	0x3e8437a2	0.25823694
177	0x3f6bd2cb	0.9211852
178	0xbe6e6560	-0.23280859
179	0x3f5f15ef	0.87142843
180	0x3f080fae	0.53148925
181	0xbf8ddebc	-1.1083598
182	0x3ddafca9	0.10692722
183	0x3e27957f	0.16365622
184	0x3d5a319f	0.05326998
185	0xc002c583	-2.0433052
186	0xc01d9e83	-2.4627998
187	0xbea9e380	-0.3318138
188	0xbeda2ef8	-0.4261396
189	0xbfa00f15	-1.2504603
190	0x3da176ce	0.07883988
191	0x403c1a22	2.939095
192	0xbd415092	-0.04719598
193	0xbda433c6	-0.080176875
194	0x3d938bb3	0.0720438
195	0x3ef10e14	0.47081053
196	0x3da58382	0.08081724
197	0xbc032d84	-0.008006457
198	0x3cba56c9	0.02274646
199	0xbd47cb7c	-0.048778042
200	0xbd8ae496	-0.067818806
201	0xbd976100	-0.07391548
202	0xbca32937	-0.019917114
203	0x3e440bdf	0.19145153
204	0x3e9bc9ff	0.30427548
205	0xc00df559	-2.2180998
206	0xbf5fb7c7	-0.87389797
207	0x3db16338	0.086615026
208	0x3dade5e4	0.08491114
209	0xbd93223f	-0.07184266
210	0xbf206179	-0.6264873
211	0xbea717b8	-0.32635283
212	0x3c1c3c2b	0.00953583
213	0x3e457ae3	0.19285159
214	0xbd30769c	-0.043081865
215	0x3d926d28	0.07149726
216	0x3e80d195	0.25159898
217	0xbd8f940c	-0.070106596
218	0x3d3a9d45	0.04556014
219	0xbdb21c14	-0.08696762
220	0x404b6f92	3.1786847
221	0xbcf6ad24	-0.030111857
222	0x3d834b3e	0.06410836
223	0xbdac601f	-0.08416771
224	0x3eb2e2a8	0.3493855
225	0xbf8ea0f0	-1.1142864
226	0xbd9ec060	-0.07751536
227	0xbe3aea3d	-0.18253417
228	0x3d9edf54	0.0775744
229	0xbe0612a8	-0.13093054
230	0xbd90adcf	-0.07064401
231	0xbe5e715a	-0.21722928
232	0x3d8a5384	0.067542106
233	0x3c50f51d	0.012753752
234	0x3d0c2c63	0.034222018
235	0xbe682c40	-0.2267313
236	0x3d840dff	0.06447982
237	0x3d93451c	0.07190916
238	0x3c4a8424	0.012360606
239	0xbdab13ce	-0.08353387
240	0x3eb43eea	0.3520425
241	0xbf20cd31	-0.628131
242	0x3e0c645a	0.13710156
243	0xbd29b3ca	-0.041431226
244	0x3be833a4	0.007086234
245	0xbb88f2cc	-0.0041793343
246	0xbf978ac8	-1.1839228
247	0x3db3e6f0	0.08784282
248	0xbe4fb717	-0.20284687
249	0xbd6e183e	-0.058128588
250	0xbc9c1f4a	-0.019057889
251	0xbcb483d0	-0.02203551
252	0xbcf742ec	-0.030183278
253	0x3f24150c	0.64094615
254	0x3d847379	0.06467337
255	0xbf25e626	-0.64804304

net.2.bias f4 [128]
0	0xbd14dc8e	-0.03634315
1	0x3f1672e8	0.58769083
2	0xbd3a39fd	-0.04546546
3	0xbe008cd8	-0.12553728
4	0xbe12fd46	-0.14354429
5	0x3e992124	0.29908097
6	0x3e1e5169	0.15460743
7	0xbdf1270a	-0.11775024
8	0xbde64967	-0.11244469
9	0x3ed964ff	0.42459866
10	0x3c53c1e3	0.012924644
11	0x3c2c515b	0.0105174435
12	0xbd30465c	-0.04303585
13	0x3eda7249	0.42665318
14	0x3cacf338	0.02111207
15	0xbe81fbdf	-0.25387475
16	0xbd8b5dbd	-0.068049885
17	0xbe00d3a5	-0.12580736
18	0x3eb88f1f	0.36046693
19	0xbde1339e	-0.10996173
20	0xbd840bc5	-0.06447557
21	0x3facd6a1	1.3503
22	0x3cc4d661	0.024028005
23	0x3ddabd74	0.106806666
24	0x3d1bd7e3	0.038047682
25	0xbd4a48e4	-0.04938592
26	0x3edfde07	0.4372408
27	0x3f157cc0	0.5839348
28	0xbe1e7321	-0.15473606
29	0xbd6efadc	-0.058344707
30	0xbe252935	-0.16129
31	0x3db594bf	0.08866262
32	0xbe01feef	-0.12694906
33	0xbdd8fce7	-0.10595112
34	0xbd044560	-0.032292724
35	0xbe1d6b6e	-0.15373012
36	0xbdaa28e7	-0.08308583
37	0xbc438d85	-0.011935596
38	0xbdce1edd	-0.100644805
39	0xbdc36959	-0.09541578
40	0x3dfd9ca0	0.123833895
41	0xbbe448d8	-0.0069666915
42	0xbe0e90be	-0.13922402
43	0x3c6b8c3c	0.014376696
44	0xbdbcf471	-0.09226311
45	0xbdf7a96b	-0.12092861
46	0xbd7c155c	-0.061543807
47	0x3e74be61	0.23900749
48	0x3cce19b9	0.02515875
49	0x3c98caea	0.018651444
50	0xbd3de86f	-0.046364244
51	0x3bfa077f	0.007630288
52	0xbba0cc22	-0.004907147
53	0xbdd03060	-0.10165477
54	0x3d70212c	0.058625385
55	0xbdad9e67	-0.084774785
56	0x3f08a16f	0.5337133
57	0x3dd5b285	0.104344405
58	0x3d202e3b	0.03910659
59	0x3c3fac3e	0.011698781
60	0xbdb83afc	-0.089956254
61	0x3c50209f	0.01270309
62	0xbd8b1507	-0.0679112
63	0xbd936880	-0.07197666
64	0x3e5babc3	0.2145224
65	0x3f0850d6	0.53248346
66	0x3f767d2e	0.9628476
67	0x3be66a9d	0.0070317523
68	0xbd817bba	-0.06322427
69	0x3fa3a09b	1.2783388
70	0xbda47854	-0.08030763
71	0x3f175507	0.59114116
72	0xbb9e0dfe	-0.0048234453
73	0x3f6e45be	0.9307517
74	0x3eb8ec5a	0.36117822
75	0x3d03f5da	0.032216884
76	0x3d89b77f	0.06724452
77	0x3cea0702	0.028567795
78	0x3c28a3a9	0.010292926
79	0x3cd16d02	0.025564674
80	0x3e90c226	0.28273124
81	0xbc2e1be9	-0.0106267715
82	0xbda0088f	-0.078141324
83	0xbda203d2	-0.07910885
84	0x3bbdda6b	0.0057938597
85	0xbd659ede	-0.05605971
86	0xbe24872a	-0.16067186
87	0x3dd8ba6c	0.10582432
88	0x3c64487b	0.013933296
89	0x3fb339bb	1.4001993
90	0xbdca2593	-0.09870448
91	0x3e997633	0.2997299
92	0xbd2e4ec8	-0.0425556
93	0xbe003fe8	-0.12524378
94	0x3ef920cf	0.48657843
95	0xbdf053c0	-0.11734724
96	0x3ca2687e	0.019825216
97	0xbda5474a	-0.08070238
98	0xbdece256	-0.11566608
99	0xbdebb307	-0.11508756
100	0x3f5849cf	0.8448762
101	0xbe0510d9	-0.12994708
102	0xbc83a20e	-0.016068485
103	0xbd0d00f1	-0.034424726
104	0xbcee781e	-0.02911001
105	0x3f62276b	0.883414
106	0xbbe8f81d	-0.0071096555
107	0xbda195ad	-0.078898765
108	0x3e43b937	0.19113623
109	0x3d6ab404	0.057300583
110	0x399b8ce8	0.00029668887
111	0xbe338be9	-0.1753384
112	0xbc0537f2	-0.008131014
113	0x3eb75b4d	0.35811844
114	0x3e393188	0.18085301
115	0x3e196fbb	0.14984028
116	0x3e00397b	0.12521927
117	0xbc1f117d	-0.009708759
118	0x3f805594	1.0026116
119	0xbdfe5b98	-0.12419814
120	0xbe0dfc8e	-0.13865873
121	0x3c32fb79	0.010924214
122	0x3d3b3540	0.04570508
123	0xbda09eb1	-0.07842768
124	0x3f8f9923	1.1218609
125	0x3d296a28	0.041361004
126	0xbde7b468	-0.11313707
127	0x3ee82d66	0.45347136

net.4.weight f4 [5, 128]
0	0x3f28966d	0.6585453
1	0x3f35c5b1	0.7100478
2	0xbdc21a96	-0.09477727
3	0x3f2c09c5	0.6720241
4	0xbc1bed60	-0.009517044
5	0x3f8a559a	1.0807374
6	0x3e5eba5c	0.21750778
7	0xbd60b9ae	-0.054864578
8	0x3d9ce2ba	0.07660432
9	0x3f020a9b	0.5079743
10	0xbca31ccc	-0.019911192
11	0xbd382e8a	-0.044966258
12	0x3c215da3	0.009848985
13	0x3d89ce7c	0.06728837
14	0x3f242076	0.6411203
15	0x3eea9b85	0.45821777
16	0xbd47814e	-0.0487073
17	0xbdaf22f0	-0.08551586
18	0x3f57d4c5	0.84309036
19	0x3ddba0fb	0.10724064
20	0x3d0985fb	0.03357504
21	0xc00b6749	-2.178179
22	0x3cfb8549	0.030703204
23	0xbd3410fc	-0.04396151
24	0x3f1eb998	0.62001944
25	0x3d065f69	0.032805834
26	0xbf24c7fc	-0.6436765
27	0xbdc14267	-0.09436493
28	0xbc12349d	-0.008923677
29	0xbd471ec2	-0.048613317
30	0xbd96c213	-0.073612355
31	0x3fa7bd53	1.3104652
32	0x3eb9629b	0.36208043
33	0xbd752866	-0.05985298
34	0x3d2f77b8	0.042838782
35	0xbd60d60a	-0.054891624
36	0xbc1d7609	-0.009610661
37	0xbc98d80d	-0.018657709
38	0xbd13b783	-0.036063682
39	0x3f090a64	0.5353148
40	0x3f9a6167	1.2060975
41	0x3d47ca9b	0.048777204
42	0x3f0bf8f3	0.5467674
43	0xbd4956aa	-0.049154915
44	0x3ec68e98	0.38780665
45	0xbcfadb87	-0.030622257
46	0x3ee62885	0.4495279
47	0x3f2f27c6	0.68420064
48	0x3f1d3d54	0.61421704
49	0x3f87938b	1.0591902
50	0x3c2ecff3	0.010669696
51	0xbf483429	-0.7820459
52	0xbe27848c	-0.16359156
53	0x3ceb9f24	0.028762408
54	0x3f25021c	0.64456344
55	0xbc109dd0	-0.008826688
56	0xbfaab362	-1.3335993
57	0x3ef6319c	0.48084724
58	0x3dab9b42	0.083792225
59	0xbe1379c7	-0.14401923
60	0xbcd52e69	-0.026023107
61	0xbd8603f9	-0.065437265
62	0xbdb18c7e	-0.08669375
63	0xbe3d798b	-0.18503396
64	0xbead3f03	-0.33837137
65	0xbe4e974c	-0.20174903
66	0xc0207678	-2.5072308
67	0xbe132647	-0.1437007
68	0xbdb2c914	-0.08729759
69	0xc00592b8	-2.08708
70	0x3d8d8df8	0.06911844
71	0xbf62677b	-0.8843915
72	0xbb8f5814	-0.0043745134
73	0xbf0a5bb8	-0.540462
74	0x3f2e069b	0.6797883
75	0xbe6a3630	-0.22872233
76	0xbdb4148b	-0.08792981
77	0x3f0636bd	0.52427274
78	0x3dc3744b	0.095436655
79	0xbd5bd11f	-0.05366623
80	0x3f2e1401	0.67999274
81	0x3d826ce3	0.06368425
82	0x3cfd6065	0.030929754
83	0x3ea79866	0.32733458
84	0xbdd3cb9c	-0.1034157
85	0xba9596ab	-0.00114127
86	0x3e056cb7	0.13029753
87	0x3ef484b3	0.4775749
88	0x3d3ad78d	0.04561572
89	0xc000ad99	-2.0105956
90	0xbdc2eff1	-0.095184214
91	0x3e1d22e3	0.1534534
92	0x3f38398a	0.719628
93	0x3e87003a	0.2636736
94	0x3f18a63e	0.59628665
95	0x3f473a54	0.77823377
96	0x3d867318	0.06564921
97	0x3d5a9038	0.053360194
98	0xbcdf9cde	-0.02729648
99	0x3f2e0503	0.679764
100	0xbe99e800	-0.30059814
101	0xbce6aae3	-0.028157657
102	0x3b8aa237	0.0042307633
103	0xbcb6575d	-0.022258455
104	0x3fbb93d7	1.4654492
105	0xbf1f24b0	-0.62165356
106	0xbc4bd97c	-0.012441989
107	0x3c823738	0.015895471
108	0x3fa9e079	1.3271629
109	0x3ef92c19	0.48666456
110	0xbda062d3	-0.07831349
111	0x3e7006d7	0.23440109
112	0xbee28885	-0.4424478
113	0xbcb25a6b	-0.02177163
114	0xbe31ff4f	-0.17382549
115	0x3f1fb16d	0.62380105
116	0x3f036515	0.51326114
117	0xbeb04c1b	-0.34433064
118	0xc00d007c	-2.2031546
119	0x3d8ffc66	0.07030563
120	0xbde25917	-0.11052149
121	0xbde2ba71	-0.11070717
122	0xbd37ea8b	-0.044901412
123	0xbd384350	-0.04498607
124	0xc0237af7	-2.5543802
125	0xbf336a55	-0.70084125
126	0xbe92d978	-0.2868154
127	0x3e60f431	0.21968152
128	0x3f64a3aa	0.8931223
129	0x3f8478d4	1.0349374
130	0xbe7479ab	-0.23874538
131	0x3f1bdf0e	0.6088723
132	0xbcf24a5c	-0.029576473
133	0xbf40932b	-0.7522456
134	0x403b53b8	2.9269848
135	0x3d68554b	0.056721967
136	0x3d726196	0.059175096
137	0x3f7e5fef	0.99365133
138	0x3da6ab91	0.081381924
139	0x3d25ccd5	0.040478546
140	0x3cd61e11	0.026137384
141	0x3f37c67f	0.71787256
142	0x3f7d7555	0.9900716
143	0x3f2ad6f0	0.6673422
144	0xbda27eb9	-0.07934327
145	0x3d109439	0.035297606
146	0x3f0d0b42	0.55095303
147	0xbb42a9a6	-0.002970317
148	0xbc1a8673	-0.009431469
149	0xc009457f	-2.1448667
150	0x3cc65ce4	0.024214216
151	0xbf890aeb	-1.0706457
152	0xbd5cd683	-0.05391551
153	0xbd799c73	-0.060940217
154	0x3e37b2c5	0.17939289
155	0xbf489983	-0.7835924
156	0x3d94d9c3	0.07268097
157	0x3d976540	0.07392359
158	0x3d640e2b	0.055677574
159	0x3e5f3ef5	0.2180136
160	0xbecc6278	-0.39918876
161	0xbd5f594e	-0.054528527
162	0xbd6aafc2	-0.057296522
163	0x3c8b2f49	0.01699032
164	0x3d9ddb35	0.07707826
165	0x3c90250f	0.017595796
166	0x3d5b0097	0.05346736
167	0x3f7ba38d	0.98296434
168	0x3f72fe4e	0.9491929
169	0x3c90fd85	0.017699013
170	0xbf4cbc4f	-0.79974836
171	0x3cad5f0f	0.021163492
172	0x3f940e8a	1.1566937
173	0xbce9a03d	-0.02851879
174	0x3f7ff7e1	0.9998761
175	0x3f32e09c	0.69873977
176	0x3f88c29c	1.068439
177	0x3f660111	0.8984538
178	0x3c87dfdd	0.016586239
179	0x3e3ac67b	0.18239777
180	0xbf21a3f1	-0.6314078
181	0x3d7fc564	0.062444106
182	0xbfc586de	-1.5431783
183	0xbd3f87c8	-0.04676035
184	0xbde0fd0a	-0.10985763
185	0x3e130ad8	0.14359605
186	0x3d596090	0.053070605
187	0xbec668f7	-0.38751957
188	0xbcfe1e6c	-0.031020366
189	0x3cbe33ec	0.023218118
190	0x3d3dc825	0.04633345
191	0xbe953cb1	-0.29147866
192	0xbf27250a	-0.6529089
193	0xbf8988a7	-1.0744828
194	0xc00293ac	-2.0402632
195	0xbd246b1d	-0.040141214
196	0xbe6116c6	-0.21981344
197	0xbff517fe	-1.9147947
198	0x3d87a684	0.06623557
199	0xbf62cb1b	-0.88591164
200	0xbd3bd4b8	-0.04585716
201	0xbea6636f	-0.32497737
202	0x3f48a6cc	0.7837951
203	0xbe96e6d7	-0.29472992
204	0xbb94baec	-0.0045388844
205	0xbf603748	-0.8758435
206	0x3ca64db3	0.020300722
207	0xbdb538cf	-0.08848726
208	0x3ee13ec2	0.43993193
209	0x3d0b73c4	0.03404595
210	0x3c9f82e0	0.019471586
211	0x3f896d98	1.073657
212	0x3cc03433	0.02346239
213	0xbd598877	-0.05310866
214	0xbd8a363c	-0.06748626
215	0x3f4a7cd6	0.79096735
216	0xbf6d237d	-0.92632276
217	0xbfba2b97	-1.4544553
218	0x3d53f431	0.05174655
219	0x3f9443b5	1.1583163
220	0x3f3fcceb	0.74922055
221	0xbefc08aa	-0.4922536
222	0x3f853c4b	1.0409025
223	0x3fab2693	1.3371147
224	0xbc470a1e	-0.012148408
225	0x3bb070d3	0.0053845434
226	0x3d48b362	0.048999198
227	0x3f5eb522	0.86995137
228	0x3e5bbcaf	0.21458696
229	0x3902a8aa	0.00012460598
230	0x3d55a87f	0.052162644
231	0x3d9a7b77	0.0754308
232	0x40006989	2.0064414
233	0xbeda6250	-0.4265313
234	0xbeab38a1	-0.33441642
235	0x3dc608e0	0.096696615
236	0x3fa5ac1f	1.2943152
237	0x3f59f729	0.8514276
238	0xbcc349c7	-0.02383889
239	0x3f3d0d8a	0.73848784
240	0xbe7f7b36	-0.24949345
241	0xbfcc90dc	-1.5981708
242	0xbe9ecd4d	-0.31016007
243	0xbe9f69ab	-0.31135306
244	0xbee0b706	-0.43889636
245	0xbe44a5cf	-0.19203876
246	0xc00f7c00	-2.2419434
247	0xbd750c7b	-0.059826355
248	0x3cf18b5a	0.029485393
249	0xbe62d860	-0.22152853
250	0xbd16127c	-0.03663872
251	0x3cadb35d	0.021203691
252	0xc0045f1f	-2.0683057
253	0x3ea4f854	0.3222071
254	0xbd3d4019	-0.046203706
255	0x3f5538d0	0.83289814

net.4.bias f4 [5]
0	0x3ef7500f	0.48303267
1	0x3e08c344	0.13355738
2	0xbeadd88e	-0.3395428
3	0x3f0488de	0.5177134
4	0x3e9c528b	0.30531725
